…
Loading route-files incrementally from '/home/erzhu419/mine_code/sumo-rl/SUMO_ruiguang/online_control/../e_passenger_rou/3_modified_period_workday_passenger_VC_0805.rou.xml'
Loading route-files incrementally from '/home/erzhu419/mine_code/sumo-rl/SUMO_ruiguang/online_control/../e_passenger_rou/3_modified_transfer_passenger_0805.rou.xml'
Loading done.
Simulation version 1.25.0 started via libsumo with time: 0.00.
[33mWARN: gym.spaces.Box autodetected dtype as <class 'numpy.float32'>. Please provide explicit dtype.[0m
Soft Q Network (1,2):  SoftQNetwork(
  (embedding_layer): EmbeddingLayer(
    (embeddings): ModuleDict(
      (line_id): Embedding(12, 4)
      (bus_id): Embedding(389, 21)
      (station_id): Embedding(1, 1)
      (time_period): Embedding(1, 1)
      (direction): Embedding(2, 2)
    )
    (layer_norm): LayerNorm((29,), eps=1e-05, elementwise_affine=True)
    (dropout): Dropout(p=0.05, inplace=False)
  )
  (linear1): Linear(in_features=36, out_features=32, bias=True)
  (linear2): Linear(in_features=32, out_features=32, bias=True)
  (linear3): Linear(in_features=32, out_features=32, bias=True)
  (linear4): Linear(in_features=32, out_features=1, bias=True)
)
Policy Network:  PolicyNetwork(
  (embedding_layer): EmbeddingLayer(
    (embeddings): ModuleDict(
      (line_id): Embedding(12, 4)
      (bus_id): Embedding(389, 21)
      (station_id): Embedding(1, 1)
      (time_period): Embedding(1, 1)
      (direction): Embedding(2, 2)
    )
    (layer_norm): LayerNorm((29,), eps=1e-05, elementwise_affine=True)
    (dropout): Dropout(p=0.05, inplace=False)
  )
  (linear1): Linear(in_features=35, out_features=32, bias=True)
  (linear2): Linear(in_features=32, out_features=32, bias=True)
  (linear3): Linear(in_features=32, out_features=32, bias=True)
  (linear4): Linear(in_features=32, out_features=32, bias=True)
  (mean_linear): Linear(in_features=32, out_features=1, bias=True)
  (log_std_linear): Linear(in_features=32, out_features=1, bias=True)
)
From Algorithm, when no state, Bus id: 7S_7S_1 , station id is: 0 , current time is: 23.0 , action is: 37.3167, reward: 100.0000

Simulation: Bus id: 7S_7S_1 , station id: 0 , dwelling time is: 37.3167
current time is:  0
From Algorithm, when no state, Bus id: 7X_7X_1 , station id is: 0 , current time is: 28.0 , action is: 5.2793, reward: 100.0000

Simulation: Bus id: 7X_7X_1 , station id: 0 , dwelling time is: 5.2793
…
