…
Hello from the pygame community. https://www.pygame.org/contribute.html
Using libsumo as traci as requested by environment variable.
cuda:0
Using libsumo for simulation (globally patched).
Warning: c_8_subfunction_for_gurobi_test module not found, some functionality may be limited
Warning: gurobipy module not found, optimization functionality may be limited
Warning: gurobipy module not found, optimization functionality may be limited
[33mWARN: gym.spaces.Box autodetected dtype as <class 'numpy.float32'>. Please provide explicit dtype.[0m
Soft Q Network (1,2):  SoftQNetwork(
  (embedding_layer): EmbeddingLayer(
    (embeddings): ModuleDict(
      (line_id): Embedding(12, 4)
      (bus_id): Embedding(389, 21)
      (station_id): Embedding(1, 1)
      (time_period): Embedding(1, 1)
      (direction): Embedding(2, 2)
    )
    (layer_norm): LayerNorm((29,), eps=1e-05, elementwise_affine=True)
    (dropout): Dropout(p=0.05, inplace=False)
  )
  (linear1): Linear(in_features=36, out_features=32, bias=True)
  (linear2): Linear(in_features=32, out_features=32, bias=True)
  (linear3): Linear(in_features=32, out_features=32, bias=True)
  (linear4): Linear(in_features=32, out_features=1, bias=True)
)
Policy Network:  PolicyNetwork(
  (embedding_layer): EmbeddingLayer(
    (embeddings): ModuleDict(
      (line_id): Embedding(12, 4)
      (bus_id): Embedding(389, 21)
      (station_id): Embedding(1, 1)
      (time_period): Embedding(1, 1)
      (direction): Embedding(2, 2)
    )
    (layer_norm): LayerNorm((29,), eps=1e-05, elementwise_affine=True)
    (dropout): Dropout(p=0.05, inplace=False)
  )
  (linear1): Linear(in_features=35, out_features=32, bias=True)
  (linear2): Linear(in_features=32, out_features=32, bias=True)
  (linear3): Linear(in_features=32, out_features=32, bias=True)
  (linear4): Linear(in_features=32, out_features=32, bias=True)
  (mean_linear): Linear(in_features=32, out_features=1, bias=True)
  (log_std_linear): Linear(in_features=32, out_features=1, bias=True)
)
[SAC | max_alpha=0.3] Episode: 0 | Episode Reward: -2172989.50 | CPU Memory: 1583.43 MB | GPU Memory Allocated: 16.96 MB | Replay Buffer Usage: 1.26% | Avg Q-Value: -1.38
[2K[2K--- ENSEMBLE ZERO ---
Warning: Ignoring attribute 'attributes' for option 'fcd-output'
Loading net-file from '/home/erzhu419/mine_code/sumo-rl/SUMO_ruiguang/online_control/../b_network/5g_changsha_bus_network_with_signal_d.net.xml' ... done (328ms).
…
Hello from the pygame community. https://www.pygame.org/contribute.html
Using libsumo as traci as requested by environment variable.
cuda:0
Using libsumo for simulation (globally patched).
Warning: c_8_subfunction_for_gurobi_test module not found, some functionality may be limited
Warning: gurobipy module not found, optimization functionality may be limited
Warning: gurobipy module not found, optimization functionality may be limited
[33mWARN: gym.spaces.Box autodetected dtype as <class 'numpy.float32'>. Please provide explicit dtype.[0m
Soft Q Network:  SoftQNetwork(
  (embedding_layer): EmbeddingLayer(
    (embeddings): ModuleDict(
      (line_id): Embedding(12, 4)
      (bus_id): Embedding(389, 21)
      (station_id): Embedding(1, 1)
      (time_period): Embedding(1, 1)
      (direction): Embedding(2, 2)
    )
    (layer_norm): LayerNorm((29,), eps=1e-05, elementwise_affine=True)
    (dropout): Dropout(p=0.05, inplace=False)
  )
  (critic): Sequential(
    (0): VectorizedLinear()
    (1): ReLU()
    (2): VectorizedLinear()
    (3): ReLU()
    (4): VectorizedLinear()
    (5): ReLU()
    (6): VectorizedLinear()
  )
)
Policy Network:  PolicyNetwork(
  (embedding_layer): EmbeddingLayer(
    (embeddings): ModuleDict(
      (line_id): Embedding(12, 4)
      (bus_id): Embedding(389, 21)
      (station_id): Embedding(1, 1)
      (time_period): Embedding(1, 1)
      (direction): Embedding(2, 2)
    )
    (layer_norm): LayerNorm((29,), eps=1e-05, elementwise_affine=True)
    (dropout): Dropout(p=0.05, inplace=False)
  )
  (linear1): Linear(in_features=35, out_features=32, bias=True)
  (linear2): Linear(in_features=32, out_features=32, bias=True)
  (linear3): Linear(in_features=32, out_features=32, bias=True)
  (linear4): Linear(in_features=32, out_features=32, bias=True)
  (mean_linear): Linear(in_features=32, out_features=1, bias=True)
  (log_std_linear): Linear(in_features=32, out_features=1, bias=True)
)
[2K[2KEpisode: 0 | Episode Reward: -2172989.504707972 | Duration: 575.20s | CPU Memory: 1600.53 MB | GPU Memory Allocated: 17.41 MB | Replay Buffer Usage: 1.26%
